last_layer/pca_weights.npy (npy, 262272 bytes, 1 tensors)

array f4 [32, 2048]
0	0x3b76a65f	0.0037635786
1	0xbd01af7f	-0.031661507
2	0xbc1d5a97	-0.009604118
3	0x3b881016	0.004152308
4	0xbc654c9b	-0.013995315
5	0x3c98ba9c	0.01864367
6	0x3c35e11d	0.0111010345
7	0xbca8f8c0	-0.020626426
8	0x3c872c3b	0.016500583
9	0x3b9f56c3	0.0048626377
10	0x398a49ea	0.0002637648
11	0x3c150b90	0.009096995
12	0xbc902041	-0.017593505
13	0xbbf29d31	-0.0074039926
14	0xbd2fe028	-0.04293838
15	0x3bd21632	0.0064113373
16	0xbaf57d52	-0.0018729365
17	0xbca8fa4a	-0.02062716
18	0xbd441077	-0.047867265
19	0x3bae6137	0.0053216475
20	0xbcc74bab	-0.024328073
21	0xbd2641b1	-0.040589992
22	0xbcc1ed59	-0.023672746
23	0xbc4306ab	-0.011903445
24	0xbcc5d2e4	-0.024148412
25	0xbcf7def5	-0.030257681
26	0xbd1a367f	-0.037649628
27	0xbd06b48f	-0.032887038
28	0xbcead7b4	-0.028667308
29	0x3ca0cc57	0.019628687
30	0xbd1233da	-0.03569398
31	0xbbc7db43	-0.006099136
32	0xbcad1e14	-0.021132506
33	0xbd03257b	-0.032018166
34	0xbd0e759d	-0.034780134
35	0x3c48d9a7	0.012258924
36	0xbce7027a	-0.028199423
37	0xbd4933a8	-0.04912153
38	0x3bfc477e	0.007698952
39	0xbd550bf4	-0.052013353
40	0xbc897434	-0.016779043
41	0x3beeed44	0.007291468
42	0xbc70ed4e	-0.014705015
43	0x3c136126	0.00899533
44	0x3bf3de0d	0.007442242
45	0x3b8d2dd1	0.0043084403
46	0x3b4c0847	0.0031132863
47	0xbcdee595	-0.027209083
48	0x3b90f0c6	0.0044232337
49	0xbc867fad	-0.016418302
50	0x3ba04920	0.0048915297
51	0xbc4817bd	-0.012212691
52	0xbcdf247c	-0.027239077
53	0x3bdeb655	0.006796638
54	0xbd0b7f82	-0.034057148
55	0xbd24a7d6	-0.040199123
56	0x3bf2facd	0.0074151517
57	0xbd1b0d57	-0.03785452
58	0x3bcb67a9	0.0062074256
59	0x3c2f2618	0.010690235
60	0xbcbb31e7	-0.022850944
61	0xbcca7fb2	-0.024719093
62	0x3ba43deb	0.005012264
63	0xbc91ede6	-0.017813634
64	0xbd1b2913	-0.03788097
65	0xbce37c92	-0.02776936
66	0xbcc722d6	-0.024308603
67	0x3b2e1535	0.0026562933
68	0xbcfd186d	-0.030895436
69	0x3b4e7e05	0.003150822
70	0x3bad73c9	0.0052933437
71	0xbcb30240	-0.021851659
72	0xbd1f19c2	-0.038842924
73	0xbcee00eb	-0.029053172
74	0xbca83fc2	-0.020538215
75	0xbca4885f	-0.020084558
76	0x3b70c00b	0.003673556
77	0xbc61ef6f	-0.013789996
78	0xbcb0de9b	-0.021590522
79	0x3c2cd930	0.010549828
80	0x3ba20801	0.004944802
81	0xbc394623	-0.011308226
82	0xbb98b5ae	-0.00466033
83	0x3be42e8f	0.006963558
84	0x3b856a29	0.004071493
85	0xbcfd3fc2	-0.030914191
86	0xbc3b1351	-0.01141818
87	0xbd050961	-0.032479648
88	0x3b5f6521	0.0034087377
89	0x3c762530	0.015023515
90	0xbcd8960c	-0.026438735
91	0x3c16f901	0.009214641
92	0xbb33773f	-0.0027384309
93	0x3c3fb1a7	0.01170007
94	0xbd3278dc	-0.04357229
95	0x3bc867b8	0.00611588
96	0x3bfdf52c	0.007750174
97	0x3c7bff54	0.015380699
98	0x3b8eb9e9	0.0043556583
99	0xbc879eb1	-0.016555162
100	0x3bd7e81c	0.006588949
101	0x3b602a90	0.0034205057
102	0xbbd4190b	-0.006472712
103	0xbd246228	-0.04013267
104	0xba6a6c47	-0.0008942526
105	0xbd2849dc	-0.041086063
106	0x3c854fa7	0.016273333
107	0x3bf4db66	0.0074724434
108	0xbc0099d0	-0.007849172
109	0x3c0ee5e0	0.008721799
110	0xbc88d870	-0.016704768
111	0xbcf4a57d	-0.029864067
112	0xbcbb656e	-0.022875514
113	0xbd00bf84	-0.031432644
114	0x3c32244a	0.01087291
115	0xbcd05ec0	-0.025435805
116	0x3c78e075	0.0151902335
117	0xbd3cdcda	-0.046109058
118	0xbcb0bbd6	-0.021573942
119	0x3bb05424	0.005381124
120	0xbcd36776	-0.02580617
121	0xbc942e6f	-0.018088548
122	0x3be26aa1	0.006909684
123	0x3c43461b	0.01191857
124	0xbcdadd2a	-0.026716787
125	0x3b174087	0.0023079233
126	0xbcd2f334	-0.025750734
127	0xbd496df6	-0.049177133
128	0x3bb1cdbb	0.0054261363
129	0x3b6f69f1	0.0036531652
130	0x3c1a1f69	0.009406903
131	0x3ba9176f	0.005160264
132	0xbd2ed55d	-0.042683948
133	0xbbea1ea5	-0.0071447664
134	0xbd173af3	-0.036921453
135	0xbb4b0adb	-0.0030981812
136	0x3ba1ce64	0.0049379338
137	0x3c1e86b3	0.0096756695
138	0xbcb6354d	-0.022242213
139	0xbcb46153	-0.022019064
140	0xbcc9d421	-0.024637284
141	0x3b5ed537	0.0034001598
142	0xbd012a54	-0.031534508
143	0xbd270586	-0.040776752
144	0x3ccce3d2	0.025010977
145	0xbc576eb9	-0.013148957
146	0xbcf5e392	-0.03001574
147	0x3b7fe63c	0.0039047142
148	0x3bf2d6e8	0.0074108727
149	0xb964949c	-0.00021799136
150	0x3c0aba9c	0.008467343
151	0x3bb78be3	0.0056013926
152	0xbc80f604	-0.01574231
153	0x39f2583a	0.0004622357
154	0x3be2dbd6	0.006923179
155	0xbc923e71	-0.01785204
156	0xbd00d39e	-0.031451814
157	0x3c236368	0.009972431
158	0xbc646836	-0.013940861
159	0xbc9962ec	-0.018723927
160	0x3b45c78b	0.0030178751
161	0x3ba4f39f	0.0050339247
162	0xbc327db2	-0.010894226
163	0xbcbf3fc0	-0.023345828
164	0xbcfed8c0	-0.031109214
165	0xbcdf5b5a	-0.02726524
166	0xbd42c788	-0.04755357
167	0x3c0aabcf	0.008463814
168	0xbc2c705a	-0.010524834
169	0x3c895263	0.016762918
170	0xbc8d7063	-0.017265504
171	0x3b8adb40	0.0042375624
172	0x3c2239cb	0.009901474
173	0xbd45e82e	-0.048317127
174	0xbc9a1ecd	-0.018813515
175	0x3ca19a85	0.019727001
176	0xbc8b8a16	-0.017033618
177	0x3c87d005	0.016578684
178	0xbc5aba3f	-0.013350069
179	0xbd161e2f	-0.03664988
180	0xbd12b507	-0.035817172
181	0x3bd45498	0.006479811
182	0x3c0038bf	0.007826029
183	0xbad91004	-0.0016560559
184	0xbae2ab3b	-0.0017293462
185	0x3c041f84	0.008064155
186	0xbd10da41	-0.035364393
187	0x3c16292f	0.009165092
188	0x3bce38f3	0.00629341
189	0xbcfa69eb	-0.030568084
190	0xbcbd099e	-0.023075875
191	0xbd28ade8	-0.041181475
192	0xbcb17da5	-0.021666357
193	0xbcaf07b2	-0.021365974
194	0x3b90eaba	0.004422513
195	0xbd30aba5	-0.043132443
196	0x3b47954e	0.0030453983
197	0xbd31886d	-0.043342996
198	0x3c4e6d72	0.012599336
199	0xbcbad008	-0.022804275
200	0xbc94cd59	-0.018164324
201	0xbc6a1451	-0.01428707
202	0x3c6baa54	0.014383871
203	0x3c3f25ad	0.011666697
204	0xbc630d57	-0.013858161
205	0xbd0a1284	-0.033709064
206	0xbd0d930c	-0.034564063
207	0xbd1c37e8	-0.038139254
208	0x3c3f165a	0.011663044
209	0x3b93e99d	0.004513933
210	0xbd40c547	-0.04706314
211	0xbd3081fe	-0.04309272
212	0x3c41bb0d	0.011824382
213	0xbcfb0322	-0.030641142
214	0xbcf15118	-0.029457614
215	0xbc84bc56	-0.016203087
216	0x3bb3effc	0.005491255
217	0xbd2ba6dc	-0.041907176
218	0xbcc5cdac	-0.024145924
219	0x3bdf9108	0.006822709
220	0x3bbc3973	0.005744153
221	0x3b1424c8	0.002260493
222	0xbd127c6c	-0.03576319
223	0xbcc20527	-0.023684097
224	0x3bb02ab5	0.005376185
225	0xbc2b84b8	-0.010468654
226	0x3c424c8c	0.0118590705
227	0xbca319e9	-0.019909816
228	0x3b7fb9ba	0.0039020614
229	0xbd291cb0	-0.041287124
230	0x3bb741f9	0.0055925814
231	0xbc9b980f	-0.018993406
232	0xbc64038c	-0.013916861
233	0x3c019196	0.007908246
234	0x3bc57bad	0.006026706
235	0xbcedfa65	-0.029050061
236	0x3c0269f0	0.007959828
237	0xbd028581	-0.0318656
238	0x3b8f6814	0.0043764208
239	0x3b693b7f	0.003558844
240	0x3c0a75f2	0.008450972
241	0x3bbf1050	0.005830802
242	0xbc43319a	-0.011913681
243	0xbc84d1d3	-0.016213333
244	0x3c646584	0.013940219
245	0xbc69ed75	-0.014277806
246	0xbcd8b1bb	-0.026451936
247	0x3bc6204e	0.0060463315
248	0xbc3c3c6a	-0.011489013
249	0xbd314682	-0.043280132
250	0x3c7c73d2	0.015408473
251	0x3a6cf254	0.0009038795
252	0xbc2a2505	-0.010384803
253	0xbc991b71	-0.018689843
254	0xbcfdb9dc	-0.030972414
255	0xbc41ee24	-0.011836562
